SouXiao_Self-Heuristic/LiuLi.onnx (onnx, 314060 bytes, 35 tensors)

feature_extractor.branch1.0.weight f4 [4, 3, 1, 1]
000000 11 7c 9b 3f f4 84 05 40 1b 7e b9 bf 5f 1b 72 bf
       1.2147237 2.0862398 -1.4491609 -0.94573015
000010 9d 19 0d 40 90 61 a8 bf 54 16 9f c0 97 08 48 bd
       2.2046883 -1.3154774 -4.9714756 -0.048836317
000020 d0 cb a2 bb b4 3c 56 40 d8 af 8a 3e 80 47 ef be
       -0.004968144 3.347455 0.27087283 -0.46734238

feature_extractor.branch3.1.weight f4 [4, 3, 1, 1]
000000 8f e3 fb bf f4 d4 2e bf 39 94 0c c0 dd 7c fd 3e
       -1.967882 -0.6829369 -2.1965468 0.49509326
000010 81 c9 63 c0 4e 09 4b 40 a3 1f 7f bf 26 c4 ab 3f
       -3.5591738 3.172443 -0.9965765 1.3419235
000020 db 27 71 c0 3f c8 93 40 92 8c 1e be ef 61 15 3e
       -3.7680576 4.618194 -0.15483311 0.1458814

stage1.0.se.1.bias f4 [4]
000000 e5 ef 32 3d 83 c2 be 3c 28 7f 23 3d 53 6e 60 3d
       0.043685813 0.02328611 0.039916188 0.054792713

stage1.0.se.3.bias f4 [32]
000000 85 34 51 3d 52 c6 59 bd b5 29 4b bd 1b 69 08 3e
       0.051075477 -0.05316765 -0.04960032 0.13321345
000010 db 00 f1 3b 20 e9 db ba 5a be 85 3d 47 4a d1 3d
       0.0073548383 -0.0016777851 0.06530447 0.102192454
000020 31 41 6a 3d a3 45 f9 3c cb d9 51 bd 53 21 6f bd
       0.057191078 0.030428713 -0.051233094 -0.05838139
000030 75 40 38 bd 81 58 84 bd 22 b3 04 3e 43 6e 9d bd
       -0.044983346 -0.06462193 0.12958959 -0.076870464
000040 dd db ec bd 9e 98 6e 3d b6 82 0b 3e 12 90 76 bd
       -0.11565373 0.058251016 0.13624081 -0.06019599
000050 7f e2 ee bc 59 08 38 3c 41 8e 78 bd af e7 19 bc
       -0.029160736 0.011232459 -0.06068254 -0.009393617
000060 90 ea f0 3d 93 e7 85 bc 54 cb 58 bd 56 0f 55 bc
       0.11763489 -0.016345775 -0.052928284 -0.013004145
000070 16 3c 68 bc 37 38 02 bd 72 be a5 3d 5f e5 01 3c
       -0.014174482 -0.031791892 0.08092965 0.0079282215

stage1.1.se.1.bias f4 [4]
000000 19 05 1b bc 03 88 28 bd 73 88 b3 3c 9c 37 ca 3b
       -0.009461665 -0.041145336 0.02191565 0.00617118

stage1.1.se.3.bias f4 [32]
000000 52 b0 48 3c d6 e5 9f 3c 61 ad 1d bd 8a 89 df bc
       0.012249069 0.019518774 -0.038495425 -0.027287263
000010 88 7f cb 3d d9 d4 5e 3e 9f 11 34 bc 47 13 fe 3d
       0.09936434 0.21760882 -0.010990529 0.124060206
000020 54 bb f2 3c 9c 37 09 be 11 6d 95 bd 35 8e 9b 3d
       0.02963034 -0.1340012 -0.072961934 0.07595483
000030 34 1a 88 3d 57 05 c8 3d e2 e2 38 3d 01 31 4f be
       0.06645623 0.097666435 0.045138247 -0.20233537
000040 d9 0f 56 bd 2f 03 97 bc 5c 12 48 3d c6 e3 d0 3c
       -0.052261207 -0.018434135 0.048845634 0.025499236
000050 95 16 78 bd 54 99 8f 3d 04 a2 3f bb c7 7e e8 3d
       -0.06056841 0.07011667 -0.0029240856 0.11352306
000060 02 c2 07 bd f9 c1 dc bd af f7 c0 3c 2f e1 e9 3c
       -0.033144005 -0.10779185 0.023555605 0.028549759
000070 3b bd f2 3c 50 ec 26 3d e2 6d ef bd 54 db 8f 3c
       0.029631248 0.04075271 -0.1169088 0.017560638

stage2.0.se.1.bias f4 [8]
000000 8a 9d 56 3d eb 8f 7e bd ff f2 49 bd 15 18 9a bc
       0.052396335 -0.06214897 -0.049304005 -0.018810311
000010 16 23 c5 bb 3d af 7b bc 85 54 0a 3c 10 a3 3e bd
       -0.0060161455 -0.015361604 0.008443003 -0.046542227

stage2.0.se.3.bias f4 [64]
000000 51 4e 01 bd 61 dd e8 bd ef 8a 17 be 30 81 b0 3c
       -0.03156883 -0.1137035 -0.14799093 0.021545976
000010 db c4 4a bd 41 44 d2 3a cf 5d 4e 3d 16 c5 6f 3c
       -0.049504142 0.001604207 0.05038243 0.014634391
000020 08 0d d8 bc f9 07 3f 3c a4 46 8b bd 59 be b6 bd
       -0.026373401 0.011659616 -0.06800583 -0.08923025
000030 ef 3a f3 bd b7 bd 5c bd 38 e8 74 bd 23 72 95 bc
       -0.11876475 -0.053891864 -0.059791774 -0.018242901
000040 1e a7 2a 3d 8e ec a3 3c 20 71 b6 3c d2 7c 32 bd
       0.04166328 0.020010259 0.02227074 -0.04357607
000050 7a 5e 4a bd 3c 24 83 3d fb ff 13 bd ce bd 98 3c
       -0.049406506 0.064033955 -0.036132794 0.018645193
000060 16 1a d9 3c 8b 6e c9 bd bd 86 19 bd 13 53 41 3d
       0.026501697 -0.098355375 -0.037482012 0.047198366
000070 b5 56 9d bd df d2 27 3d a8 41 33 be 59 a8 44 b9
       -0.07682554 0.040972587 -0.17505515 -0.00018754731
000080 ad 56 a8 3d 51 c6 d2 bd d4 9a bb bc 5e 52 81 3d
       0.08219657 -0.10291732 -0.022900976 0.063145384
000090 d7 18 a1 3d 23 f7 a7 3d 7c 56 ee 3c 8e 68 37 bd
       0.07866066 0.082014345 0.029093973 -0.044777445
0000a0 84 c3 8a 3d 99 58 93 bc c1 b2 dc 3d 1b 6c 2f 3c
       0.06775573 -0.017986583 0.10776282 0.010706927
0000b0 9c 9a 72 bd 5c 19 0b bd d5 09 72 bc 8b f0 3b bb
       -0.05922948 -0.03395973 -0.014772852 -0.002867731
0000c0 72 5e 44 3d 43 be 88 bd 98 a5 8b bd 35 9b ff ba
       0.047941633 -0.066769145 -0.06818694 -0.0019501211
0000d0 d3 b0 82 bd f9 95 84 3d d8 eb 11 bd 8c 5b 8e bc
       -0.06381383 0.064739175 -0.03562531 -0.017377637
0000e0 77 ba 92 bd 66 66 ec bd 2c e1 53 bd fb b1 08 3d
       -0.071644716 -0.115429685 -0.051728413 0.03337286
0000f0 7d 1e 81 bd 8c b7 53 3d 0b 28 64 bd b5 f5 da 3c
       -0.06304643 0.051688716 -0.05570225 0.02672849

stage2.1.se.1.bias f4 [8]
000000 3d f3 37 3d d4 a5 b2 3b 92 d7 41 bd da 7d de 3d
       0.044909704 0.005451897 -0.047324724 0.10863848
000010 58 45 72 3d b0 ad 8e 3d ee b2 81 3c 69 73 76 3d
       0.059148163 0.06966722 0.01583239 0.060168657

stage2.1.se.3.bias f4 [64]
000000 f2 b4 37 3d 8b a5 1f 3d b6 00 8c 3d d6 30 b3 b9
       0.044850297 0.038976233 0.06836073 -0.00034177926
000010 bc 10 9a 3d 83 f5 1a bd 53 5f 48 3d e3 e3 4b bd
       0.07522723 -0.037831794 0.048919033 -0.049777877
000020 bb f4 39 3e 34 fb 62 3d a3 80 f9 3c 13 33 8f 3d
       0.18159764 0.055415347 0.030456847 0.069921635
000030 14 ab 55 3e 08 02 1a 3c c3 72 c3 3c 9c 34 2c 3c
       0.20866042 0.009399898 0.023858434 0.01051059
000040 04 89 1c be 76 06 a6 bd 17 60 a5 bc 91 75 e9 3c
       -0.15286642 -0.08106701 -0.02018742 0.028498443
000050 8e ee 80 bd dd 70 50 bd 3c e4 90 bc d0 76 c6 3c
       -0.06295501 -0.050888885 -0.017686956 0.024226576
000060 f3 3c 9c 3c ca e6 5c bd f2 90 0e 3d 35 21 d8 bc
       0.019072032 -0.053931035 0.0348062 -0.026383022
000070 24 28 5e bd e2 60 c1 bd 25 dd de 3d 41 54 24 3e
       -0.0542375 -0.09442307 0.10882024 0.16047765
000080 06 f3 99 bc 6a f7 28 be 6f 54 21 3d 1e ea 42 be
       -0.01879264 -0.16500631 0.039387163 -0.19034621
000090 79 79 d8 bc 3a 12 f1 bc ea 3e 0e be 46 ae 60 bc
       -0.02642511 -0.029427636 -0.13891187 -0.013713425
0000a0 81 d5 12 3d d0 f9 67 3d bc 9b c9 bd 60 10 09 bd
       0.035848144 0.056634724 -0.09844157 -0.033462882
0000b0 5a b5 e9 3c a7 75 ad 39 6e d8 08 bd 13 93 78 bd
       0.028528858 0.0003308479 -0.03340953 -0.060687136
0000c0 cd 04 04 bb 64 43 01 3d a7 b6 2a bd b2 56 76 bd
       -0.0020144463 0.03155841 -0.041678097 -0.060141273
0000d0 a3 a7 a2 3b 6f 61 ba bd 7e 42 05 3d 23 5b f7 bd
       0.0049638315 -0.09100615 0.032534115 -0.1207793
0000e0 e2 b8 ee 3d c8 f1 95 bc 05 8e 88 3d 34 ef a2 bc
       0.11656357 -0.018303767 0.06667713 -0.019889452
0000f0 0e fa ed b9 27 30 69 3c bd 3d 16 3b 07 e2 40 3d
       -0.00045390468 0.014232672 0.0022924982 0.047090556

stage3.0.se.1.bias f4 [12]
000000 0a da a1 3c 6e 33 98 3c c2 68 33 3b b4 f1 99 bd
       0.01975729 0.018579211 0.0027375673 -0.07516804
000010 5c bf 66 bb 58 23 25 3a b0 3c 4e 3b 10 f5 51 bd
       -0.0035209274 0.0006299517 0.0031469278 -0.0512591
000020 e6 46 e8 bc 85 bb 96 bc 7a 0e b5 bc 35 4c f5 3b
       -0.02835412 -0.018399963 -0.02210163 0.007485891

stage3.1.se.1.bias f4 [12]
000000 7f 91 f4 bc ce fe af 3b 25 1d 40 bd b3 9c df 3c
       -0.029854534 0.0053709513 -0.046902794 0.0272964
000010 52 37 9d 3b b9 56 86 bd a5 18 d2 3c f5 22 17 3c
       0.0047978545 -0.0655951 0.025646517 0.009224643
000020 98 06 36 bd 2e a9 2f bd 7a 36 fa 3b bd 06 c0 3c
       -0.044439882 -0.04288595 0.0076358886 0.023440713

stage3.2.se.1.bias f4 [12]
000000 1a 20 dd 3c 06 37 eb 3d ac 0e b1 3c c4 d3 c3 3c
       0.026992846 0.11485104 0.021613441 0.023904689
000010 79 80 81 bc 84 82 a6 bd 3f 43 10 3d 98 7c a6 3d
       -0.01580833 -0.08130363 0.03522038 0.08129233
000020 3a 3e 05 be 0e 2a bc 3c 66 0f 9a 3d a1 80 6f 3d
       -0.13012019 0.022969272 0.07522468 0.05847228

stage4.0.se.1.bias f4 [16]
000000 39 d0 f4 bc 93 cf 3a bd 94 41 53 bd 65 42 01 be
       -0.029884445 -0.045608114 -0.051576212 -0.12622984
000010 1c a3 f0 3c 43 43 2b 3d 79 73 e7 3c 46 5e 6b bd
       0.029374652 0.041812193 0.028253304 -0.057462953
000020 82 47 b3 3c f2 37 32 bd f3 f1 85 3c ab 55 5a 3d
       0.021884684 -0.043510385 0.016350722 0.053304356
000030 07 19 d9 3b 54 9c 42 3d 9c c5 37 3d d5 48 38 be
       0.006625298 0.047512367 0.04486619 -0.17996533

stage4.1.se.1.bias f4 [16]
000000 12 9a 7e bd c3 3a 05 be 56 10 01 be bb 60 ef bd
       -0.06215865 -0.13010697 -0.12603888 -0.11688372
000010 f8 38 15 be 83 a8 d2 bd bb 9a 69 3d 84 a4 e4 3d
       -0.14572513 -0.10286047 0.057032328 0.11164191
000020 ee 75 2a bd a8 78 97 bc d8 cc 32 bd 37 e9 a8 bd
       -0.041616373 -0.01849015 -0.043652385 -0.08247607
000030 c1 a9 20 bd 90 e6 92 bd c0 b5 82 bc 70 df 0a bd
       -0.03922439 -0.071728826 -0.015955806 -0.033904493

classifier.4.bias f4 [64]
000000 f2 f5 a5 bd 88 4f 49 3e c4 2a 39 3e 76 2f 29 bd
       -0.08103551 0.19659245 0.1808272 -0.041305028
000010 84 1c 39 3e af e5 42 3e 39 24 93 3e 49 a0 19 3e
       0.18077284 0.1903293 0.28738573 0.1500255
000020 c4 d5 f0 3c 88 2d 35 bd 08 e4 dc 3d ac be 32 3e
       0.029398806 -0.044232875 0.10785681 0.17455548
000030 9c 96 36 3e 7d c9 c1 3c 2c 7b f5 3d ba fe 54 3e
       0.1783089 0.023655647 0.11986384 0.20800295
000040 91 dd 64 3d 58 f1 cd 3e c0 29 6e bd 9e 17 22 3e
       0.055875365 0.40223193 -0.058145285 0.15829322
000050 ce 69 86 3d a8 15 8b 3e be 89 cf be fa 02 9c 3d
       0.065631494 0.2716496 -0.40534776 0.07617755
000060 86 19 8f 3e df 26 18 3e 34 7b 43 3e ce 8c 8b be
       0.2794916 0.14858578 0.19089967 -0.27255863
000070 c7 95 fa be b2 ea 69 3e 64 df a1 3e 58 80 6a 3e
       -0.48942396 0.22843435 0.31615746 0.22900522
000080 50 3a c3 bb 28 2d 7b 3e 72 34 86 3d 2e d7 42 bf
       -0.005957879 0.24528944 0.06552972 -0.7610959
000090 10 95 d7 3d bd 6e 41 3e 26 bd 86 3e 8c ba f2 3d
       0.10526478 0.188899 0.26316184 0.11851987
0000a0 80 de 55 3e be 23 a3 be e4 bc 5e 3e 3c 84 37 3e
       0.20885658 -0.31863207 0.21751744 0.17921537
0000b0 78 31 07 3e 4f 46 50 3e 72 3b 74 3e c0 78 ef ba
       0.13202465 0.2033932 0.23850802 -0.0018270239
0000c0 4a a2 11 3f 6e 58 84 3e c8 6c d3 3c d6 3d 53 be
       0.5688826 0.25848716 0.025808707 -0.20629057
0000d0 91 6e 71 3e 92 00 18 bd cc 89 5b 3e 88 27 6b bd
       0.23577334 -0.03710992 0.21439284 -0.057410747
0000e0 18 5a a2 3e 74 98 f0 3d af e6 b9 3d 27 f5 80 bf
       0.3170936 0.11747828 0.090772025 -1.0074815
0000f0 29 d9 9f be 39 43 36 3e 9b 4c 5b 3e 34 20 a8 3e
       -0.31220368 0.17799081 0.21415941 0.3283707

classifier.8.bias f4 [2]
000000 4a ee 31 3c 11 f1 31 bc
       0.010860035 -0.010860697

feature_extractor.branch1.0.weight_bias f4 [4]
000000 c5 d9 11 bf 8c a4 58 bd 21 73 94 3f 83 8a 32 bf
       -0.56972915 -0.0528913 1.1597635 -0.697426

feature_extractor.branch2.0.weight_bias f4 [4]
000000 2f d9 04 be 94 01 34 3d 9b 63 0d bf 8e 56 1c bf
       -0.12973474 0.043946818 -0.5523011 -0.6106957

feature_extractor.branch3.1.weight_bias f4 [4]
000000 f9 0f b7 3f e4 4e 60 be 07 28 88 3f 64 a7 65 bf
       1.430175 -0.21905094 1.0637215 -0.8970854

feature_extractor.fusion.0.weight_bias f4 [16]
000000 a2 27 8d bf 0a ee cb 3e bc 65 e2 bd 8b 7d 7d 3f
       -1.102772 0.39830047 -0.110545605 0.9901969
000010 ac 5e 8c 3e fd c2 f9 bf f6 70 66 be a8 7b 54 3f
       0.2741598 -1.9512631 -0.22504029 0.83001184
000020 b5 e8 6a bf a2 2f 13 3e 00 71 88 3e 47 8b 0b 3f
       -0.9176133 0.14373639 0.26648712 0.54509395
000030 00 e7 5c bc e7 c7 95 be b0 91 75 3f 0e 9f b4 3c
       -0.013482809 -0.29254076 0.95925426 0.0220485

stage1.0.expand.0.weight_bias f4 [32]
000000 83 8e 04 be 94 b5 c6 3f f8 ce ba 3f 80 08 d8 3e
       -0.12944989 1.5524163 1.4594412 0.42193985
000010 c0 11 d6 be a8 11 9f bf bb 9a c1 be 00 e5 d0 bc
       -0.41810417 -1.2427263 -0.37813362 -0.02549982
000020 2c 03 ee bd b4 62 19 3f 2d 4c 66 bf 0c ee 2b 3f
       -0.11621699 0.59916234 -0.89959985 0.67160106
000030 46 ff 13 bf b2 a8 f0 3e 80 bd 34 bf f0 37 ac be
       -0.5781139 0.47003704 -0.70601654 -0.33636427
000040 e4 f1 ca bd 4c e9 5b bf c9 65 8a 3f 6a c7 9b 3e
       -0.09909418 -0.8590286 1.0812312 0.30425578
000050 2e a8 52 3f ec 56 da be cf 99 62 be 62 98 42 3f
       0.8228787 -0.4264444 -0.22128986 0.7601377
000060 fe 0a 28 be 3c 05 96 3f 57 4c 23 3e 82 48 61 3e
       -0.16410443 1.1720347 0.1594709 0.22000316
000070 bb bf 39 bf 1c 80 cf 3d 1b cb 0c 3f 12 0c 48 be
       -0.7255818 0.10131857 0.54997414 -0.19535854

stage1.0.depthwise.0.weight_bias f4 [32]
000000 be 51 8e 3d cc 97 3e 3f c7 6c 44 3e ce e2 8e 3f
       0.06949185 0.74450374 0.1918212 1.1162965
000010 36 16 66 bf 16 d3 7b be 2e 48 24 bf 4e 1a 51 3f
       -0.8987764 -0.24592242 -0.6417264 0.8168076
000020 dc 75 31 be ef 78 5f 3e 8a 68 bf be 85 75 06 3f
       -0.17330116 0.21823476 -0.37384444 0.5252307
000030 76 25 67 bf 91 da 54 3f 26 5c b7 3e 76 56 10 bf
       -0.90291536 0.83146006 0.3581249 -0.5638193
000040 76 25 f9 3e 9e 1c 96 3f fd a8 0d be 81 58 5a 3f
       0.48661393 1.1727483 -0.13833995 0.85291296
000050 80 3a 1d bf 76 aa 67 be 20 a7 ec bc ff f9 9f 3e
       -0.6141739 -0.2262362 -0.028888285 0.3124542
000060 80 8b 63 be 47 06 8c 3d 90 d7 1c bf 5b d2 99 3e
       -0.22221184 0.06837135 -0.6126642 0.300433
000070 dc fa 59 3f 86 67 50 bf d7 22 39 bf db 97 37 3e
       0.85148406 -0.81407964 -0.72318786 0.17929022

stage1.0.project.0.weight_bias f4 [32]
000000 e1 1f 63 bf fd 68 5f bf 5f 96 8b 3f 0a 56 03 be
       -0.8872052 -0.87269574 1.0905265 -0.1282579
000010 1f 7c f9 3d d9 42 a9 3e 55 4b c9 3e dc 5f 00 bf
       0.12181877 0.33058813 0.39315286 -0.5014627
000020 ee f6 1b be 2c 29 85 bf 36 25 5d 3e bc e0 a1 be
       -0.15230915 -1.040319 0.21596226 -0.3161677
000030 4f 61 61 3f 33 e1 7e 3e c7 23 7b be 82 9c bf be
       0.88039106 0.24890594 -0.24525367 -0.37424093
000040 e5 99 04 bf cc ec 9e 3d d5 ce 8c bf 59 a1 3d 3f
       -0.51797324 0.07760009 -1.100062 0.7407432
000050 b7 b6 3e 3f 70 30 27 3f 54 ce 04 3f f0 b4 48 3e
       0.7449755 0.65308285 0.5187733 0.19600272
000060 b2 8c 26 3f aa a8 17 3e 55 ed cd 3e 33 76 f2 bd
       0.65058434 0.14810434 0.40220132 -0.11838951
000070 b1 89 a8 3d 01 90 83 be 37 ff 6b bf 72 d3 3e 3d
       0.082293876 -0.25695804 -0.921863 0.04658837

stage1.1.project.0.weight_bias f4 [32]
000000 6b cd 14 bf 57 d7 c4 3e 6e 3c 2e 3f 3e b5 50 be
       -0.5812594 0.3844554 0.6806096 -0.20381638
000010 97 28 b6 3e 46 f8 b3 bf 7a 27 72 3f 9c dd 13 3f
       0.35577843 -1.4060142 0.94591486 0.57760024
000020 ba 84 b4 be 60 af 8d 3a 42 4f 12 3d 7c e3 d2 be
       -0.35257512 0.0010809712 0.035720117 -0.41189182
000030 ae 4b 89 be b7 fe 24 3d fc 36 be bd f0 6f 4d be
       -0.26815552 0.040281978 -0.09287831 -0.20062232
000040 6b ff 3e bd 2f ee 90 be f1 5e 78 3f 98 3f a8 3e
       -0.046630304 -0.2830672 0.9701987 0.32861018
000050 e9 db 39 bf ea ec 07 3f c1 fb 3d 3f 70 9a b2 be
       -0.7260118 0.5309588 0.7421227 -0.3488345
000060 79 47 9e 3f 0d 2c 03 bf a6 1c d4 3d 39 27 6b be
       1.2365562 -0.5123909 0.10357027 -0.22964181
000070 ca f4 15 3d db 06 50 3f 44 c9 5a bf 85 8d 05 bf
       0.036610402 0.8126046 -0.85463357 -0.52169067

stage2.0.expand.0.weight_bias f4 [64]
000000 3a a0 4d 3d 68 aa fc 3c c8 b0 a6 3d c0 4d b3 b9
       0.050201632 0.030842975 0.08139187 -0.0003419947
000010 13 e2 15 3e de 39 18 3e ca d4 50 3d 42 57 0c 3e
       0.14637022 0.14865825 0.05098418 0.13705161
000020 56 b9 1b 3d f5 4c 34 3d a6 f4 c9 3d 4a 5c 7c bd
       0.038018547 0.044018704 0.09861116 -0.06161145
000030 83 ee eb 3d 9d ec 04 be 40 c6 bd 3d b2 56 1a 3e
       0.11520102 -0.12980886 0.09266329 0.15072134
000040 78 cc 83 3d ff 8f 89 3e 82 c4 6a 3c b4 5d af be
       0.06435484 0.26867673 0.014329078 -0.34251177
000050 28 d6 be 3d 93 21 5f 3e 1d d4 28 3e ea 7d 7c 3e
       0.09318191 0.21790151 0.16487165 0.24657407
000060 d6 5f fe 3c 64 eb 6b 3e c7 9a 18 3e ba b6 1d 3d
       0.031051558 0.23039013 0.14902793 0.03850434
000070 f8 10 83 be 59 c7 f4 bd 0d ea a6 bd 5c 9a 04 3e
       -0.25598884 -0.11952085 -0.081501104 0.12949508
000080 e5 36 ba 3d 43 b9 77 bc 3b 31 ab 3d 85 a0 84 be
       0.090925016 -0.015119853 0.08358999 -0.25903717
000090 9b 4c 1f 3e 6c b5 1d 3e 34 9b a8 3d bc 7b 9e bd
       0.15556566 0.15401238 0.08232728 -0.07738444
0000a0 6e e3 92 bd b4 8b cb bd 4e c6 dd bc 4c 50 42 3e
       -0.07172285 -0.09938756 -0.027072098 0.18975943
0000b0 b2 aa 89 bd ec cf 05 3e 67 1d de 3d f4 cc 8f 3c
       -0.06722011 0.13067597 0.10845452 0.017553784
0000c0 41 3b 12 3e fe 81 31 3d 70 d3 b5 3c f4 6d c1 bc
       0.14280416 0.04333686 0.022195548 -0.023612
0000d0 c8 85 ba bc f6 11 07 be 20 f8 b9 3d 62 e3 67 3e
       -0.02276887 -0.13190445 0.09080529 0.22645333
0000e0 05 ef 73 3e 62 b5 a8 bd f4 b1 1f 3e d5 2a 4a 3d
       0.23821647 -0.08237721 0.15595227 0.049357254
0000f0 d0 54 8b 3e 74 27 75 3d 4a 6f a1 3c b4 29 0b 3e
       0.27213144 0.05985208 0.019706387 0.13590127

stage2.0.depthwise.0.weight_bias f4 [64]
000000 b4 84 56 bf dc cd 52 be 5e f5 64 be 63 73 00 bf
       -0.8379624 -0.20586342 -0.22359225 -0.50176066
000010 14 f7 14 bf aa f5 5f 3f f2 67 ec 3e bb 33 10 bf
       -0.5818951 0.8748423 0.46173054 -0.56328934
000020 bd a1 24 bd a5 29 55 bf a0 45 0c bb 21 3b 73 3f
       -0.04019331 -0.8326667 -0.0021403804 0.950121
000030 ca 43 32 bf 97 7f 02 bf 92 14 b3 3e eb f8 b3 3f
       -0.6963469 -0.50975937 0.3497663 1.4060339
000040 76 9a 05 bf 76 d3 18 3f d0 a1 69 be d1 c6 20 bf
       -0.52188814 0.59697664 -0.22815633 -0.6280337
000050 8f bd 11 3e a7 bc 81 3f 13 dd 6b 3f d7 8c ff 3e
       0.14232467 1.0135697 0.9213421 0.4991214
000060 6c a0 04 3f 36 c7 6d 3e 45 22 70 3f 2e 2f 81 bf
       0.51807284 0.23220524 0.9380229 -1.0092523
000070 00 d8 14 3b 38 82 00 3f 2d 74 cd be 59 17 18 3f
       0.0022711754 0.501987 -0.40127698 0.59410626
000080 00 5b 36 3f 29 72 e5 3d b0 e4 96 3e 72 d3 7f bf
       0.71232605 0.11203415 0.2947135 -0.99932015
000090 38 4c 16 3e fc 76 c7 3e f3 17 53 bf 65 eb 84 bf
       0.14677513 0.38957965 -0.8245842 -1.0384337
0000a0 cd c7 30 3f 73 08 57 bf 30 dd 3b bf 3a 17 82 3f
       0.6905487 -0.8399727 -0.7338438 1.0163338
0000b0 2a b0 b1 3e c2 a4 bc be c4 6a 13 be 46 98 6d be
       0.34704715 -0.3684445 -0.14396197 -0.23202619
0000c0 8a 0c 22 3f 5b 9e 78 3e ff 77 43 3f 1e c1 1e bf
       0.63300383 0.24279158 0.76354975 -0.62013423
0000d0 19 d3 a8 3e 02 21 cc be 4a dc 4e 3f c5 09 3d 3f
       0.32973555 -0.39868933 0.80804884 0.7384303
0000e0 90 1f 84 3e 51 52 fc bd 30 b3 90 bd a2 e8 f7 3e
       0.2580533 -0.12320388 -0.07065427 0.48419672
0000f0 b1 45 84 3f 31 5e 63 bf 64 c6 4f bf a0 27 14 3f
       1.0333768 -0.888156 -0.81162095 0.5787296

stage2.0.project.0.weight_bias f4 [64]
000000 9c a6 a5 3e 36 13 fe be ba 1d 03 3f 68 e5 06 bf
       0.32353675 -0.49624032 0.51217234 -0.52693796
000010 9a b7 64 3d 56 31 88 bf e7 b8 6e bf f1 90 9c be
       0.05583916 -1.0640056 -0.9325089 -0.30579332
000020 b3 fb bc 3e c5 b5 72 3f b9 b7 a2 bf 0c a8 00 bf
       0.3691078 0.9480861 -1.2712318 -0.5025642
000030 d8 a6 3d 3e 40 ac f4 bb 20 22 81 3e c4 32 11 bf
       0.18520677 -0.007466823 0.25221348 -0.5671809
000040 5a 20 2d bf 1b 13 8e 3f 45 e7 81 3e 08 48 2e bf
       -0.6762749 1.109958 0.25371757 -0.6807866
000050 9e b1 7b be dc a0 81 3e 84 47 fa 3d c4 d4 9f 3e
       -0.24579474 0.25318038 0.12220672 0.31217015
000060 30 0c 6f be 6e 0e 84 3e 8e 48 aa bd 6f 38 fa 3e
       -0.23344493 0.2579226 -0.0831462 0.4887118
000070 84 62 72 bd 8e 13 25 3f 4c b1 7e be 23 85 fa be
       -0.059175983 0.64482963 -0.24872321 -0.489297
000080 d5 3d 7d 3e 91 cd 87 be 68 c5 ce 3e a9 a2 d3 3e
       0.24730618 -0.26524022 0.40384984 0.41335037
000090 3c 49 11 3f 89 2e 60 3f 7e 0e 2f 3e c1 6b 4f be
       0.5675237 0.87571007 0.17095372 -0.20255949
0000a0 d6 17 23 be 27 62 27 3f c5 ab 67 3e 70 5a 01 3d
       -0.15927061 0.65384144 0.22624119 0.03158039
0000b0 4c 53 47 bf 9e 5b 8b 3e 00 01 02 be 49 d7 9d 3f
       -0.77861476 0.27218336 -0.12695694 1.2331325
0000c0 d5 d8 9b be 19 fc 60 bf 66 5e 41 3f 4e 3e 27 bf
       -0.30438867 -0.8788467 0.75534666 -0.65329444
0000d0 ed 51 99 3e 79 2f 71 bf 8c ce 0e 3f de a1 72 3d
       0.29945317 -0.9421306 0.55783916 0.0592364
0000e0 95 fd b0 3e 6a 2f 16 bf 16 86 0e 3e 12 e3 e9 be
       0.34568468 -0.586661 0.13918337 -0.45681053
0000f0 7d 59 c1 be 4a 0d de 3e 75 a9 a4 3e 0d 7c 89 bf
       -0.37763587 0.43369514 0.32160535 -1.0740982

stage2.1.project.0.weight_bias f4 [64]
000000 0a 9a ab 3e d8 f6 66 bf 60 b0 9d 3d 4a bd b2 3f
       0.3351596 -0.90220404 0.076996565 1.3964016
000010 aa e6 5f 3d 30 a6 10 3e c6 8d 81 be 19 48 3e bf
       0.054663338 0.14125896 -0.25303477 -0.7432876
000020 cd 70 81 3f 0a 88 a1 be 96 df 45 3f 47 ee bc 3e
       1.0112549 -0.31549102 0.7729429 0.3690054
000030 27 68 f5 bd 8b fe d3 3e 28 bd a8 3e f1 c3 92 3f
       -0.11982756 0.41405138 0.32956815 1.1466047
000040 1e 2a 99 3e f9 ca 6f bd 04 c1 94 be 92 08 b8 be
       0.29914945 -0.05854318 -0.2905351 -0.3594404
000050 80 11 70 3e 07 cc db bd ee 55 91 be 61 95 cd 3d
       0.23444176 -0.107322745 -0.28385872 0.100382574
000060 06 03 64 3e 19 3e da be b0 d7 9f bf 20 f8 47 bf
       0.22266778 -0.42625502 -1.2487698 -0.78112984
000070 ae 3a 11 bf 6e 36 97 be a1 cc e9 bf dc b9 ae 3e
       -0.56730163 -0.29533714 -1.8265573 0.34126174
000080 f7 9c 44 3e b4 03 18 3f ae 6f 9b 3e cf 5b f6 bd
       0.19200502 0.5938065 0.30358642 -0.1202923
000090 fa 66 eb be bb e3 cf be d1 74 54 3f b4 4d cb bd
       -0.45977002 -0.40603432 0.8299075 -0.0992693
0000a0 43 a3 42 3f 95 e2 81 be f3 75 43 bf 7e 69 a5 be
       0.7603037 -0.2536818 -0.7635185 -0.32307047
0000b0 39 d9 93 3d 90 13 f5 bd 00 cd 9b be 96 09 9d 3e
       0.07219166 -0.11966622 -0.3042984 0.30671376
0000c0 41 b0 06 3f e4 4c 03 3f 3a b5 76 3d 1c 39 09 3f
       0.5261269 0.512892 0.060231425 0.53602767
0000d0 8b 5f 21 3f 5f 0a 89 3e e3 74 86 3e 2b 32 a1 bd
       0.6303641 0.26765725 0.26261052 -0.07870897
0000e0 60 2f f2 be 14 06 a5 3e 13 b0 7d bd 92 e9 71 be
       -0.4730177 0.322312 -0.061935496 -0.23624256
0000f0 97 02 b9 3e 38 dc 8d 3d d3 40 09 bf 1c c2 48 bf
       0.36134788 0.06926769 -0.5361454 -0.7842119

fpn.lateral_convs.0.0.weight_bias f4 [64]
000000 20 b6 64 be c1 6d c0 bd 85 1c 94 be a0 3b 1d bc
       -0.223351 -0.09395934 -0.2892801 -0.009596735
000010 1c c6 d0 bc 15 0a 9b be 34 b8 65 be b2 3e 26 bd
       -0.02548509 -0.3028113 -0.22433549 -0.040587135
000020 5a 68 ed bd f7 0c 8d be ce ce 2c bd a4 53 a5 bd
       -0.11592169 -0.27548954 -0.04218941 -0.08072594
000030 65 ff be 3d 3d 7c e2 bd 7d 9b 45 bd 2b 13 ed bc
       0.093260564 -0.11058853 -0.04824399 -0.028939804
000040 5e b9 03 be bf 47 d6 bd 4a 37 a7 3d 97 c5 93 bd
       -0.1286368 -0.10462903 0.081648424 -0.07215422
000050 08 20 b4 be 00 c3 79 bc 40 31 f4 ba 69 82 8d 3c
       -0.35180688 -0.0152442455 -0.00186304 0.017274098
000060 94 b8 d3 bd 20 43 45 be d7 fb 0a be 03 89 4e be
       -0.1033794 -0.19263887 -0.13572632 -0.20169453
000070 4c 97 3f be 66 f1 59 be d5 5a 15 be de 45 c4 bd
       -0.18710059 -0.21283492 -0.14585431 -0.095836386
000080 7f 9c af bd 68 29 1c be d6 58 df bd 8c 63 7d be
       -0.08574771 -0.1525017 -0.10905616 -0.24745005
000090 2c 04 26 be fc 84 be be fb 72 b0 bd 10 49 6a bb
       -0.16212529 -0.37210834 -0.08615681 -0.0035749115
0000a0 e6 95 7f be 00 e8 ec bd ed 1c 6b 3d 3b 12 19 be
       -0.24959525 -0.11567688 0.057400633 -0.1494836
0000b0 4d 77 95 be 54 6b 7e be 5e 07 d6 bd d8 c6 4e be
       -0.29192582 -0.2484563 -0.10450624 -0.2019304
0000c0 43 b9 45 be 4e b8 a6 3d 2b 38 06 be 6a 2f 41 3d
       -0.19308953 0.08140622 -0.13107364 0.04716436
0000d0 0c 13 18 be 51 06 86 be 20 66 3d be b0 54 fa bd
       -0.14851016 -0.26176694 -0.18495989 -0.12223184
0000e0 5e 5f b2 bd 29 0a 85 be 60 10 cd bd 30 16 08 be
       -0.08709596 -0.25984314 -0.10012889 -0.13289714
0000f0 bf 22 36 be fc 0c 08 3d 60 42 9b 3b 77 31 a2 bd
       -0.17786692 0.033215508 0.004738137 -0.07919591

fpn.lateral_convs.1.0.weight_bias f4 [64]
000000 e4 03 2d 3d ce 1f f7 bc d2 1c 91 3d 1d 50 86 3d
       0.04224004 -0.030166533 0.07085575 0.06558249
000010 ed 2c 5c 3d b6 6e f7 bd e6 a7 70 3e 80 49 2c 3c
       0.053753782 -0.12081663 0.23501548 0.010515571
000020 b5 13 72 bd f2 24 ed 3c 14 68 40 be f0 86 d1 3e
       -0.059100825 0.028948281 -0.18789703 0.40923262
000030 67 06 13 bd cc ee 2c 3e 7d 43 9b 3e f8 9e 52 3b
       -0.035894778 0.16887969 0.30324927 0.003213821
000040 b2 cf db bd 0c 3f e0 3c 57 63 19 3e 67 2c 59 3e
       -0.10732974 0.027373813 0.14979301 0.21208344
000050 14 e8 a9 bb fc 08 e0 3c a4 e3 89 3e d0 3f fe bc
       -0.0051851366 0.027348034 0.2693149 -0.031036288
000060 d1 e6 e0 3c 18 41 18 3d 0a 82 2b 3c c6 9d 77 3d
       0.027453812 0.037171453 0.010468015 0.0604532
000070 98 0d ed bd ee fe b5 3c 2e 59 d5 3c 5e 2f d7 3d
       -0.115748584 0.022216287 0.0260435 0.105070814
000080 a0 14 0c 3b 84 44 01 3c 08 13 cb 3c 12 78 98 bd
       0.0021374598 0.007889871 0.024789348 -0.074447766
000090 ef 10 2a bd b1 5c 0f bd f4 e3 0a be 1a 07 86 3d
       -0.041520055 -0.035000507 -0.1356352 0.06544323
0000a0 f5 57 35 3e 8c 51 63 be 94 c5 ef 3c fb ec 22 3e
       0.17709334 -0.22199076 0.029269017 0.15910713
0000b0 b2 3c 08 be b4 ad 73 bb e4 9f ae bd 44 80 37 bd
       -0.13304403 -0.0037182393 -0.085265905 -0.044800058
0000c0 67 f4 9b 3d e5 65 16 3e 72 ed 93 bd 2e ed c6 3d
       0.076149754 0.14687307 -0.072230235 0.09713207
0000d0 fc fa b3 3d e1 3a 8e 3e bd 22 e6 bc 68 34 86 bd
       0.08788106 0.27779296 -0.028092736 -0.065529644
0000e0 8e 22 cb bd e4 43 d7 bd f4 f2 08 3c 6a 0c a2 bd
       -0.099187 -0.10510996 0.008358706 -0.07912524
0000f0 6a 04 38 be 80 35 69 3d b0 b0 80 3c 32 f8 c3 bd
       -0.17970434 0.056935787 0.015709251 -0.09568824

fpn.lateral_convs.2.0.weight_bias f4 [64]
000000 76 ca 94 3c b2 44 30 3e ce fa d5 bd 1a ce d6 bd
       0.018162947 0.17213705 -0.10448228 -0.104885295
000010 c6 22 c0 bd 96 30 5f be 22 8b ca bd 82 a4 ff bd
       -0.093816325 -0.21795878 -0.09889819 -0.12482549
000020 56 5a 0c be ae 49 9e be 2d e4 b2 bc 57 76 81 be
       -0.13706335 -0.30915588 -0.021837318 -0.252856
000030 0d d0 2c be 51 98 37 3e eb 75 40 be b9 00 53 3e
       -0.1687624 0.17929198 -0.18794982 0.20605744
000040 e2 18 9f 3d 22 fa 84 be 86 9e 6c 3d fe fb a0 bd
       0.07768418 -0.25972086 0.057768367 -0.07860564
000050 fb 58 41 3e ea 52 9d 3e 8a ee 96 bd 35 07 9a 3e
       0.188816 0.3072732 -0.073697165 0.30083624
000060 5e d4 f6 bd 1d 57 94 3d 5c 8a d6 3e c4 d2 eb bd
       -0.120522246 0.07243178 0.41902435 -0.1151481
000070 90 1e 49 3e 78 47 45 be 21 58 f4 3d 84 56 7f 3d
       0.19640565 -0.19265544 0.11930872 0.062338367
000080 2f 8f 61 3d 71 b6 c4 3d bd 1a 16 3e e8 65 b5 bd
       0.05506819 0.096051104 0.14658637 -0.08857328
000090 6f 01 6f 3e b6 40 36 3c d7 2c 9e be a2 42 92 bd
       0.2334039 0.011123827 -0.30893585 -0.071416155
0000a0 ac e9 22 3e 3d 7b e7 3d 29 ef 80 3d 03 03 c9 3d
       0.15909451 0.11302803 0.06295616 0.098150276
0000b0 76 1d 3d 3d 50 0f 17 be d8 bc d6 bd d7 d5 56 3e
       0.046170674 -0.14751935 -0.10485238 0.20980011
0000c0 c4 9b 34 be 0c 7d 62 be fb 74 6c 3e 05 cb 62 3e
       -0.17637545 -0.22118014 0.230915 0.22147758
0000d0 d0 a0 4e bd 55 07 5b 3e dc 79 4c 3e d6 f3 c6 bb
       -0.05044633 0.21389516 0.1996836 -0.006071548
0000e0 e3 5b 20 be 40 4f 5f 3e 94 da b4 bc 80 36 1f bd
       -0.15660052 0.21807575 -0.022076882 -0.038870335
0000f0 30 f9 c8 bc 6c 02 73 3d 18 a2 a5 be 14 8a 9f be
       -0.024532884 0.05932848 -0.3235023 -0.31160033

fpn.lateral_convs.3.0.weight_bias f4 [64]
000000 68 3f 16 3d f3 f3 33 bd 74 d6 f3 3c c0 9c 09 bc
       0.036681563 -0.04393382 0.029765345 -0.0083991885
000010 22 6d 8d 3e 8a 05 37 be 28 82 89 be 57 4c 10 bf
       0.27622324 -0.17873207 -0.26857114 -0.56366485
000020 8c 71 4b 3d ac e4 1d bd 30 ab 56 be 8c 1f 8a be
       0.049668834 -0.038548157 -0.2096374 -0.26977193
000030 ae 26 d5 be 42 b0 3a 3e 9c 93 10 bf 28 ce de be
       -0.41631073 0.182313 -0.56475234 -0.4351666
000040 a3 62 cd 3d 7e 53 e4 bd 3d df 20 be ac 71 a6 be
       0.10028579 -0.11148737 -0.15710159 -0.325086
000050 68 34 a9 3c 8e 7b 97 be 2e 11 42 3e f7 ec 02 bf
       0.020654872 -0.29586452 0.18951866 -0.5114283
000060 10 78 91 3c a0 e9 c9 3b e0 44 08 bd 65 39 0d bf
       0.017757446 0.0061618835 -0.03326881 -0.551657
000070 e0 a9 4c 3e 2c 71 d9 bd 47 ea 45 3e d6 c8 cc be
       0.19986677 -0.10617289 0.19327651 -0.39996976
000080 b2 85 09 be e1 84 84 3e 28 a7 6c 3e 26 4c d6 be
       -0.13429907 0.2588263 0.2311064 -0.41854972
000090 80 cd dc 3a ce ff 8f be 3c ed 91 3e 11 a4 ac 3d
       0.0016845912 -0.2812485 0.28501308 0.08429731
0000a0 7a 4e 17 bd 8e f1 06 3e 5d e1 c8 be 16 28 dc 3d
       -0.036940075 0.13178083 -0.3923444 0.10749833
0000b0 be 9f 11 3e 98 7b c2 be 96 2b 2a 3e c2 83 25 3e
       0.14221093 -0.3798492 0.16618189 0.16163543
0000c0 11 b2 32 be 42 20 06 3d de 5a fa be 68 50 ff be
       -0.1745074 0.032745607 -0.4889745 -0.49866033
0000d0 6e d6 9f be 08 dc b2 be 5b c4 32 3e 23 86 99 be
       -0.31218284 -0.34933496 0.17457716 -0.2998515
0000e0 ca 38 4b 3e 2e 99 c6 be 85 35 1d 3e dd 6b 95 be
       0.19845882 -0.38788742 0.15352447 -0.29183856
0000f0 7d 74 9e be f7 26 29 3e 68 08 db bc 09 80 09 bf
       -0.30948249 0.1651877 -0.026737407 -0.5371099

fpn.global_fusion.0.weight_bias f4 [64]
000000 a9 05 c0 be 36 07 84 bd b1 a6 d7 bf d4 15 d5 be
       -0.37504318 -0.06446688 -1.6847745 -0.41618216
000010 a9 6c 38 bf eb 57 4e 3e fd 1e 7a bf 76 83 1e bf
       -0.720408 0.20150726 -0.97703534 -0.61919343
000020 7e 09 ab 3e ff 15 4f bf 39 b6 41 bf b6 07 27 3d
       0.3340568 -0.8089294 -0.75668675 0.040778838
000030 ee 75 46 bf 47 61 68 bf 9e 13 b7 be 94 79 51 3c
       -0.77523696 -0.90773433 -0.35757154 0.012785334
000040 dc 81 46 be 16 19 fb be 04 29 31 3f 5d d5 01 be
       -0.19385475 -0.49042577 0.6920321 -0.12679048
000050 55 ea 58 bf 6e 76 0b bf f5 5b 70 bf e3 7e f5 3e
       -0.8473256 -0.54477584 -0.93890315 0.4794837
000060 12 36 34 bf 88 16 f4 be 3a 62 68 be 49 23 0e bf
       -0.70395005 -0.4767344 -0.2269372 -0.5552259
000070 13 06 24 bf 9e b3 b9 be df ae fa be bc 20 e0 bd
       -0.6407177 -0.3626985 -0.4896154 -0.109437436
000080 94 ba 2d 3e 42 cd 19 3e bd 0f ff be 26 c2 0c bf
       0.16965705 0.15019706 -0.49816695 -0.54983747
000090 83 ca a9 be 8a 34 8c bf 84 64 bc 3e bf ce 52 bf
       -0.33162317 -1.0953534 0.36795437 -0.8234672
0000a0 4a b0 6b 3e 09 ee 13 bf 65 7d b4 be ea 21 8b bf
       0.23016468 -0.5778509 -0.35251918 -1.0869725
0000b0 7d aa 70 bf 24 e3 15 bf ad b4 69 3e 30 18 3d bf
       -0.94010144 -0.58549714 0.22822829 -0.7386503
0000c0 cc e4 a6 bd 58 49 12 be 4c aa 2d bd 42 f4 09 3d
       -0.08149108 -0.14285791 -0.042398736 0.033680208
0000d0 3e 95 51 3e 69 ed 54 3f 63 88 86 be ce 42 4b 3e
       0.20467088 0.8317476 -0.2627593 0.19849703
0000e0 82 0f ef 3d fd 96 14 bf b6 0a 0e be 38 e3 9d be
       0.1167288 -0.5804289 -0.13871273 -0.30837417
0000f0 54 96 47 bf 64 a0 ab be 5c 4d 03 bf 3c b2 0e bf
       -0.7796376 -0.33520806 -0.51289916 -0.55740714

global_pool.1.weight_bias f4 [64]
000000 78 23 d5 be d5 6e c1 be 52 75 52 be 80 cf dc be
       -0.41628623 -0.3777987 -0.20552567 -0.4312706
000010 57 5e 07 3d 5a 57 f7 be 85 9f a7 be a6 72 4c be
       0.033048954 -0.4830883 -0.3273889 -0.1996561
000020 a8 f0 c7 bd 33 9a 56 be a8 7a 67 3e 74 01 cc 3c
       -0.097626984 -0.2095726 0.22605383 0.024903037
000030 1b 3c 98 3e 84 62 d2 bc f7 f1 9b 3e 39 cf 2b be
       0.29733357 -0.025681742 0.30458042 -0.16778268
000040 f8 ec 55 3c 0e 0d 27 be 3d 2f 19 3e f2 57 95 be
       0.013056986 -0.16313574 0.14959426 -0.2916866
000050 62 44 bf be d8 1f 2e 3e a0 f0 8e 3d 36 d7 81 3e
       -0.3735686 0.17004335 0.06979489 0.25359505
000060 51 0c 71 3e 83 40 8b bd d6 5a cc be 4d 70 81 be
       0.23539855 -0.06799414 -0.39913052 -0.2528099
000070 78 50 36 3d 57 13 a6 3d 74 0f f4 bc c1 90 86 3e
       0.044510335 0.081091575 -0.029792525 0.26282313
000080 4a 4c 7c be d2 a0 eb 3d a6 27 c2 3d 0f df b9 be
       -0.24638477 0.115052834 0.094802186 -0.36302993
000090 a3 86 dd 3e 8a ed 3d 3e bc d9 8c 3d 66 f9 94 be
       0.43266782 0.18547645 0.06877467 -0.29096526
0000a0 17 c1 27 be 76 29 da be 74 8f 0c 3c 05 6e 9f 3e
       -0.16382252 -0.42609757 0.008579124 0.31138626
0000b0 e3 e9 88 bd 58 d5 b6 be b4 6a b0 be 98 59 6e 3e
       -0.06685235 -0.35709643 -0.34456408 0.23276365
0000c0 9a 81 28 be 24 58 68 be 76 f8 28 be bb 89 00 bf
       -0.16455689 -0.22689873 -0.1650103 -0.5021016
0000d0 08 2a 86 be 10 ea 88 3e 20 b0 78 be 98 53 87 3e
       -0.26203942 0.26741076 -0.24285936 0.26430964
0000e0 41 5b ee be fe d8 08 be 36 ac a6 3e 3a 39 53 3e
       -0.46553996 -0.13364026 0.32553262 0.20627299
0000f0 fa 31 eb bd ef ba 8d be 20 49 2d bb 54 50 80 be
       -0.11484142 -0.27681682 -0.002644129 -0.25061285
